best_model_final.pth (torch, 23169 bytes, 5 tensors)

fc1.weight f4 [64, 10]
00000000: 8a91 643f f666 833d 4572 c8bd 6cc1 7c3e
00000010: 9600 483f a429 0b3e 8120 2e3e 6a55 a3be
00000020: aa5d 82be 1e15 c5bf 111a c4bb 08d0 13be
00000030: 4f57 6abd 4bcc 86bd cb84 5a3f d8b4 a6bd
00000040: d058 023f 0c1a 70bf fc21 39bf 54a6 f4be
00000050: d240 4b3e a883 3e3e 1dca fabd 57e5 25bf
00000060: 785d d8bd 8a54 073f 2e90 6c3f 5857 c3bc
00000070: 0cfc 4ebe 8253 823f 31f9 c7be 0006 91be
00000080: 1538 3fbf e78e c7be 42b3 f4bd 93c3 853e
00000090: 11de 5cbf ff76 1b3c 8635 933e de81 693e
000000a0: e6e3 a5be c410 2e3e 6b26 033f 4f25 00be
000000b0: db13 81be 9852 48bd c3d8 bcbe 9b89 3f3e
000000c0: 4104 38bf 0428 e6bd c17a de3d 6462 9bba
000000d0: 807a 53bd 3590 223d 19d2 6e3d 819a 883e
000000e0: abc8 ea3e be72 87be 707d 6dbe af3c ffbd
000000f0: b903 64bf 1add 0abe 072c 70be 2c42 9d3e
00000100: 083c adbe e065 463f 3a44 753e eefb ba3c
00000110: 893d 843e 2e24 44be 63b2 513e b93c ab3b
00000120: 6434 58bf e32a 103e ffbc 6bbe ba6c 28bf
00000130: e789 0abd 24cc 92be 1894 e2bd 9d56 1abe
00000140: d738 06be 126c 263e 03b5 4d3e b2d6 57bd
00000150: 22bc 233e f079 c93d a90a 153f 8d36 47bf
00000160: 33dd 10bf 9d6b 753d e9a4 f0be ad26 be3d
00000170: 7f74 dabd aef4 b7be bc56 9f3e 9257 6a3e
00000180: 06cd 0abe 9583 bbbd 5ca2 89bd 2f95 173e
00000190: 62ab 54be 5d2d 113f 955b 15be 6342 82be
000001a0: 766f 0e3f 804a 4ebe 7acd b03e cc16 b03c
000001b0: 9a73 57be 6ace 19bd 5135 823e 9b59 13bd
000001c0: 3d5a 2e3e 77fd af3e b20a babe 39af 813e
000001d0: 4d54 bc3e 1c3c 0a3f fded a63e 0fa0 42be
000001e0: fa75 a4bc 60ec 803d 7e38 8ebe 87cd 2abd
000001f0: 1297 b83d 67a0 933e 2a35 76be 5582 1ebe
00000200: 59d2 9fbe 7c02 9e3e 3b2c 98be 7ca0 f1bd
00000210: 0029 733e 2c9c 19be c64d 5d3d d6de e73d
00000220: fa7a 35be 6445 76be a45c 6abe 0ae5 883e
00000230: 5730 e8bc 8028 0e3f 2e4c 473e 1a34 113f
00000240: bcf4 a83d 0292 45be 3880 95be f00c afbe
00000250: 6697 833d 3db2 11be 802c ebbd fd60 0e3d
00000260: 01d7 343f eeac 3cbe 33b9 b3be 2015 363d
00000270: 15ef 133f 11ae f9bb 13ef b9be e2b0 8c3e
00000280: 9621 c1bc ffa0 7dbe c6d4 5bbe c7b6 b1be
00000290: f08a 9c3e 05c1 5cbe 8cb8 97be abb8 c8ba
000002a0: 57ff 51be 285d a63e 41ad 8a3f 5459 623e
000002b0: d9c2 403d a040 963d 7669 3fbc ed4e 4f3d
000002c0: 3bb0 c3be e21b 30be c6d8 61bc e10f cb3d
000002d0: 295d 30bd c704 903d 95e9 7f3d dcbb 90bd
000002e0: 6825 853d 33a7 04bf d3eb b13e d325 acbe
000002f0: c834 6dbe f392 1ebd 7815 ff3e 9b52 4dbd
00000300: 52e9 41be af4e b5be b747 aa3e 13c0 87be
00000310: 816c 1e3f 2491 1ebe 601f d73e 03a1 a33e
00000320: aeea 773e 000d ee3b 7b8e babe 8218 af3d
00000330: 489d afbd 7c47 82be eff1 db3e a9d9 2c3e
00000340: 9869 05bf aee0 4c3f a695 d43d 5baa 18be
00000350: 806c b8be 98bf 893e f0ab 3a3f 2c1c 333f
00000360: bcb5 efbd 538f 973e 8565 d8be 8a3e 0f3e
00000370: 0676 6dbf c051 4cbb decf ba3e 877e 7fbe
00000380: b897 1c3d 2e80 663f 139f d1be e1c2 55bc
00000390: 17e8 f6be f65e 233f 6681 b8be 33ff ed3e
000003a0: f7ed 9f3e 9e81 2d3f d57f 0f3f 5d9c 19be
000003b0: 8432 773d 9139 823e 4034 08be 8256 933e
000003c0: 31dc 7fbf a53c 693e e847 ae3d fb71 5ebd
000003d0: 2e2e 8d3e 6e8a a73e 1d4e 063e 218b 113e
000003e0: 77e6 203f 17d3 ff3d f113 83bc 5be1 a73e
000003f0: 909f aa3f 31bc 123f df90 023f e95c d8bd
0.89284575 0.064161226 -0.0978742 0.2468316 0.78125894 0.13590103 0.17004587 -0.31901103
-0.25462085 -1.539707 -0.0059845527 -0.14434826 -0.05721217 -0.065819345 0.85358876 -0.08139962
0.5091677 -0.93789744 -0.7231748 -0.47783148 0.19848946 0.1860491 -0.12245581 -0.6480307
-0.10564703 0.5286337 0.924075 -0.02384536 -0.20213336 1.0181735 -0.39057305 -0.2832489
-0.7469495 -0.38976213 -0.11948253 0.26125774 -0.86276346 0.00948882 0.28751773 0.22803447
-0.32400435 0.16998583 0.51230496 -0.12514232 -0.2521046 -0.048906893 -0.36884126 0.18704836
-0.7188149 -0.11238101 0.10863257 -0.0011854884 -0.051630497 0.039688308 0.058305833 0.26680377
0.45856223 -0.2645473 -0.23192382 -0.12462746 -0.8906818 -0.13560906 -0.23454295 0.30714548
-0.33834863 0.774992 0.23951808 0.022825208 0.25828198 -0.19154426 0.20478205 0.0052257446
-0.8445494 0.1407886 -0.23021315 -0.65790904 -0.03382292 -0.28671372 -0.11063403 -0.15072103
-0.1310762 0.16252163 0.20088582 -0.052694984 0.15989736 0.09837711 0.5821939 -0.7781761
-0.56587523 0.05991708 -0.47000816 0.092847206 -0.10666751 -0.35928863 0.3112086 0.22884968
-0.13554773 -0.09155957 -0.06720421 0.14803003 -0.20768502 0.56709844 -0.14585717 -0.25441274
0.55638826 -0.20145607 0.34531766 0.021495245 -0.21040192 -0.037550367 0.25431302 -0.035974126
0.1702661 0.34373066 -0.36336285 0.25328997 0.36783066 0.5399797 0.32603446 -0.1900637
-0.020075787 0.06295085 -0.27777475 -0.041699912 0.090131894 0.28833315 -0.24043718 -0.15479405
-0.3121517 0.3086127 -0.29721245 -0.11798188 0.23746109 -0.15000981 0.05402925 0.113217995
-0.17722693 -0.24049908 -0.22886902 0.26737243 -0.028343363 0.5553055 0.19462654 0.56720126
0.082498044 -0.19293979 -0.29199386 -0.34189558 0.06425361 -0.14228149 -0.11483097 0.034760464
0.7064057 -0.18425342 -0.35102233 0.04445374 0.57786685 -0.0076196273 -0.36315212 0.274787
-0.023575585 -0.24768446 -0.21467885 -0.3470976 0.3057475 -0.21558006 -0.29632986 -0.0015313824
-0.2050756 0.32492948 1.0834123 0.22104388 0.04706082 0.07336545 -0.011682859 0.05061238
-0.3822039 -0.17198136 -0.013784593 0.09915138 -0.043057594 0.07032161 0.06247862 -0.07067081
0.06501275 -0.51817626 0.34750232 -0.33622608 -0.23164666 -0.03871436 0.49821067 -0.050127607
-0.18936661 -0.35411593 0.3325784 -0.26513728 0.61884314 -0.15485054 0.42016125 0.3195878
0.24210617 0.0072647333 -0.3643683 0.08549596 -0.08574921 -0.25445163 0.42958018 0.16879906
-0.5211425 0.80030334 0.10380106 -0.14908735 -0.3602028 0.26903987 0.72918606 0.6996486
-0.11704585 0.29601535 -0.42264953 0.139887 -0.92758214 -0.0031176656 0.36486715 -0.2495061
0.038230628 0.90039337 -0.40941676 -0.013046951 -0.48223945 0.63816774 -0.36036223 0.46483764
0.3123624 0.67775905 0.5605443 -0.15001054 0.06035091 0.25434545 -0.13301182 0.28776938
-0.9994536 0.2277704 0.08509809 -0.05430792 0.27574295 0.327228 0.13115735 0.1421323
0.6285166 0.12491434 -0.01600072 0.3278912 1.3329945 0.5731841 0.51002306 -0.10564596

fc1.bias f4 [64]
00000000: 2875 2cbe a9ce e6be f642 f2be e0d0 433f
00000010: 1abb cebe b396 6fbe d2f3 8d3a 573e 1cbe
00000020: e3a7 3f3e 56e0 bbbe b673 db3d 0662 95be
00000030: 7d6d 633e 57fd 12be df86 c5bd 9ab0 5c3f
00000040: 2066 293f 631d 7a3d 05ae 10be 2114 afbe
00000050: 4f6e 06be 0093 b3be a71f cabd 8130 923d
00000060: 349e e63e c46c 043f d8bd 873e e5ba d8bd
00000070: 3d11 233e b022 40bf 10cc df3e f80a a6be
00000080: 0902 34be ba19 283d d567 663d 9a5e 5f3e
00000090: ae74 99bd 66d5 23bd 8398 9cbd e910 0a3d
000000a0: db3d 88be 47b2 40be eee8 afbe 5b17 70be
000000b0: 9a40 a53d 7136 c3be 12c4 0ebf e5ce 543e
000000c0: d04f 24be 498a 27bd 1f4e 2d3c 9b67 093e
000000d0: 2c8e 903e 1850 3e3e bf44 aebe c9e9 d3bd
000000e0: 9c49 9cbe 1d6f 8c3d 7efb 09be 8de9 6a3e
000000f0: c168 6c3d 60cf ef3d b1c4 cbbb e037 b43e
-0.16841567 -0.45079544 -0.47316712 0.7649059 -0.40377122 -0.23397331 0.001083011 -0.15258156
0.18716387 -0.36694592 0.107154295 -0.29176348 0.22209735 -0.14354454 -0.09644865 0.8620697
0.66171455 0.06106318 -0.14128883 -0.34195045 -0.13128017 -0.3507309 -0.098693185 0.07138158
0.45042574 0.51728463 0.26512027 -0.10582522 0.15924545 -0.7505293 0.43710375 -0.32430243
-0.17578901 0.04104016 0.056251366 0.21813431 -0.07492958 -0.039998434 -0.07646277 0.033707533
-0.26609692 -0.18818007 -0.343574 -0.2344641 0.080689624 -0.38127473 -0.5576793 0.20782049
-0.16046071 -0.040903363 0.010577708 0.13418429 0.2823347 0.18585241 -0.34036824 -0.10347325
-0.3052491 0.06857131 -0.13474843 0.22940655 0.05771709 0.117094755 -0.006218516 0.3519888

fc2.weight f4 [64, 64]
00000000: 757e b0bc 8a91 33be 9fce 30be 8169 d43c
00000010: a502 943e 32aa 903d 635a 013f e182 e3bc
00000020: df4e 6cbd 8aa5 17bd d44b c7bc 16ec 29be
00000030: ab0f 363d 52d8 df3d 8168 b43c 6a06 84bb
00000040: 6211 e6bd ddac ec3e 54fa ac3e 2d52 1cbe
00000050: a9e8 62be 4869 ad3e 3dde 34be d998 3ebe
00000060: a423 79be bcec 813e 9efe ab3d 879d 933e
00000070: da7e ae3d 964b a0be 2eb4 e33d 590b 863e
00000080: e75b ef3d c64d db3c 92de adbe 9ee0 20bf
00000090: 5fa4 4bbd d13f 7a3e 48b1 34be 89ed e0bd
000000a0: 0200 1e3d 260e b7be 095d 19be af3d a1bc
000000b0: 1563 ad3e 0262 76bd 66b5 da3e 5817 923e
000000c0: 6f3a f63e 5a2d d93d 7025 293d 4d08 6abe
000000d0: fb8f a23d e7c0 243e 1fb1 41be 0971 193e
000000e0: 7d96 cc3e 0633 4b3e fee3 623e ab08 8a3d
000000f0: bca0 823d 75b5 f63b 45fc a33d 3032 603d
00000100: c21a 20bf ff63 9dbe a1bd b2bd f474 fb3d
00000110: c416 8fbe 351b 8c3d 1a1b c03e 9f84 6f3e
00000120: 9c03 0a3f a2d9 8fbe 1254 0dbe ce8c 833d
00000130: 8f59 373e 3223 ee3e 1e04 bdbd beb2 20be
00000140: ac2b f13d 7d98 e93e 6690 08bd 866f b7bd
00000150: c5f1 bf3d 8ff9 abbc ed13 943e c1d3 69be
00000160: 3b17 7d3e 130d 423e ca49 45bd 20b6 013e
00000170: cd2a 98be 1eeb 6b3d 906e 473c d830 4fbd
00000180: 4789 383d ce5b fd3c 2399 233e f715 ffbd
00000190: e4c3 8d3c a08f b43b 585f c73e c7b1 9fbe
000001a0: aac8 ff3e a454 c2be c9f6 b83d e6b9 0bbd
000001b0: 79a2 cb3d 0414 93bf 4d3c 413e c704 00be
000001c0: eef9 9c3e f832 07be aba3 543e 328d 10be
000001d0: 0eb9 8b3d d300 b1be c34c 26bf 2f9e c93d
000001e0: ebf7 1a3e da43 aebe 0a2c 173e 6136 aa3d
000001f0: 0efe 283e 685a 45be 30d8 5ebe 7fca 59be
00000200: 1a61 403d 6bee aa3d d4b8 993c 96d0 74bd
00000210: 88a7 1cbd 740c 34bf 933c 09be fe22 8ebe
00000220: a4fc f8bc 6979 293e eec4 913c 89a6 72be
00000230: 9669 00bf a62b fcbb bd06 7d3e 1277 183e
00000240: 1d43 e5be 8603 f13e 0fde 2dbd 0f08 06be
00000250: a525 06bf 33c9 35bf d8d5 d8bd 9f25 adbe
00000260: cdc2 1a3e 3fe1 313d 2085 af3e 8e48 99bf
00000270: e0f0 973b 3998 63bd 8c2b d73d b857 b2be
00000280: 5740 593d 068b 68bd 3cca 96be f551 b5bd
00000290: d77c 703e 9338 df3d 9168 373d a1a3 c63d
000002a0: e540 05bf 1ed8 adbe cb9d 5bbe 2e3a 243e
000002b0: 6912 b6be bd9c 893f 6817 e53c a481 8dbe
000002c0: 198e 3f3e 52cb 1fbe 4765 a13e d88f 01bf
000002d0: 70b1 3f3e 64c2 1d3e e189 3abe 5ac6 07bf
000002e0: 7465 fa3e ae19 7e3e 3f58 4fbe cea5 d73b
000002f0: d22e c13e af90 b03e 50a5 db3e eb2d d8be
00000300: e8cf e4be 2dc9 4ebf 8e09 9e3d 3457 41bf
00000310: 5889 b03e a590 a43e 0bb3 723e 0b50 083f
00000320: 05df ae3e d463 a2be ce01 86be 6e6b 343f
00000330: a9bf 533e 3fe8 663e 217b 26bd 6677 49be
00000340: 08ad 3abe 740a 08bf bea0 063e 4307 e43e
00000350: 0f80 05bd 149b a8bd d3a2 1ebe 923e bb3d
00000360: 1b70 43be 87cb 8e3e ffa9 85be b7ee e7be
00000370: 965c 3c3e 0fa8 b9b9 15e5 543f fa0c 333d
00000380: da0c 52bf 0c38 bd3e 12ba 90bc 3cc4 883c
00000390: 6733 c63d 2238 6f3e 588c 6d3d 3bae 8c3a
000003a0: c3f6 943e 2d90 ad3d cb2b 35bd e84e c9bd
000003b0: 75ff c83c cbcb 4f3e 6615 e4be 644d 923d
000003c0: bcaa 123d affc 38bf bb21 12be afb5 323e
000003d0: b89a 40bd 4603 09be 1788 1b3e d29c 77bd
000003e0: f661 febd 00e2 ce3d 7cc4 553e b090 dabe
000003f0: 9712 19bd f063 7f3e 28c1 8dbd 5b9c 4bbe
-0.021544674 -0.17535987 -0.1726632 0.025929214 0.28908268 0.07063712 0.50528544 -0.027772369
-0.057692405 -0.037023105 -0.02432815 -0.16593966 0.044448536 0.10929932 0.022022488 -0.004029085
-0.11233784 0.46225634 0.33784735 -0.15265723 -0.22159065 0.33869386 -0.17662902 -0.18612994
-0.24330002 0.25375926 0.08398174 0.2883112 0.08520289 -0.31307667 0.11118351 0.26180533
0.11687451 0.026770484 -0.3395887 -0.6284274 -0.049717303 0.24438407 -0.17645752 -0.10982806
0.038574226 -0.35752982 -0.14976896 -0.019682733 0.33864656 -0.06015206 0.4271652 0.28533435
0.48091456 0.10604353 0.04129547 -0.22854729 0.07937618 0.16089211 -0.18915223 0.14984526
0.39958563 0.19843683 0.22157285 0.067399345 0.06378314 0.0075289556 0.08007101 0.054735363
-0.6254083 -0.30740353 -0.08727575 0.122781664 -0.27947056 0.06841127 0.37520677 0.23390435
0.5391176 -0.28095728 -0.13801602 0.06423341 0.17905258 0.46511227 -0.09229301 -0.15693185
0.11775908 0.45624152 -0.033340834 -0.08956818 0.09372286 -0.020993022 0.28921452 -0.22834684
0.24715893 0.189503 -0.048166074 0.12667131 -0.29720154 0.057597272 0.012172356 -0.05058369
0.045052793 0.030927565 0.15976386 -0.12455361 0.017305322 0.0055102855 0.3893993 -0.3119032
0.49957782 -0.379552 0.090314455 -0.034112833 0.099430986 -1.1490483 0.18870659 -0.12501822
0.3065943 -0.13203037 0.2076556 -0.14116362 0.06822406 -0.3457094 -0.6496088 0.09844624
0.15133636 -0.34036142 0.14762893 0.08311153 0.16503164 -0.19272768 -0.21762156 -0.21268652
0.046967603 0.08346256 0.01876489 -0.059769236 -0.038245708 -0.703315 -0.13402013 -0.27761072
-0.030393906 0.1655022 0.017794099 -0.2369634 -0.5016111 -0.007695633 0.24709602 0.14889172
-0.44777766 0.47073 -0.0424481 -0.13089012 -0.5240119 -0.7101013 -0.105876625 -0.33817765
0.15113373 0.043427702 0.34281254 -1.1975267 0.004636869 -0.055565093 0.10506353 -0.3483255
0.053039875 -0.056773208 -0.29451168 -0.08853523 0.23485123 0.108994626 0.044777457 0.096991785
-0.52052146 -0.33953947 -0.21446912 0.16037819 -0.3556092 1.0750958 0.027965263 -0.2763797
0.1870655 -0.15604904 0.3152258 -0.50610113 0.18720031 0.15406185 -0.18216659 -0.53037035
0.48905528 0.24814484 -0.20248507 0.0065810448 0.37731034 0.34485385 0.4289956 -0.42222533
-0.4468987 -0.8077572 0.07716666 -0.75523686 0.34479785 0.32141605 0.23701112 0.53247136
0.34154525 -0.31716788 -0.26173252 0.70476425 0.20678581 0.22549532 -0.04064477 -0.19674453
-0.18230069 -0.5314095 0.13147256 0.4453679 -0.03259283 -0.08232704 -0.154918 0.09142794
-0.19085734 0.27889654 -0.2610626 -0.45299312 0.18394694 -0.00035411163 0.8316205 0.043713547
-0.8205086 0.36956823 -0.01766685 0.016695134 0.09677773 0.23361257 0.05799517 0.0010733077
0.29094514 0.08474765 -0.044231217 -0.09829503 0.024535874 0.20292585 -0.44547576 0.07143667
0.035807356 -0.72260565 -0.1427068 0.1745212 -0.04702255 -0.13380155 0.15188633 -0.06045229
-0.12421028 0.101017 0.20875734 -0.42688513 -0.037371244 0.24940467 -0.06921607 -0.19883864

fc2.bias f4 [64]
00000000: 850b 073f 4921 5bbe aebd 9b3e ec03 df3e
00000010: c4b3 66be fafe 1bbf 610a b0be 9551 f9bd
00000020: adc1 b63d 4d5e 883d 1d95 323e 4d2d 4a3e
00000030: 1b62 f03d 6402 763e 64f9 c73d da16 4d3f
00000040: d621 f33c c1eb f03c 3cf7 b2bd c602 e33c
00000050: 5b93 c4bd 27b4 d8be a2a6 863e c086 db3c
00000060: ee8c bdbc a504 dc3d bf73 3f3e 1ebb ee3d
00000070: 5f44 8dbe d8db 293e 87c3 f6bd 59d6 eabd
00000080: 066c e4be 7022 563d 05f3 033f 197f 6fbe
00000090: bdd4 17be c33d 80bc 4ec5 c03d 860f d9bd
000000a0: fed1 103d 7c41 d23d 7350 a13c 4049 a83b
000000b0: 7360 abbe 00e2 60be 0465 dd3e 9faa 26bc
000000c0: 8495 0ebf da8d ae3e 58a7 21be b68f 4ebe
000000d0: 6d90 c9bd 98fb 553e ab70 37be 00d6 acbe
000000e0: bae1 8c3e 1c7c 6c3e e931 163f fe23 05be
000000f0: f6d4 fcbe 9ac3 143f 7d7b 89bc 2296 9a3e
0.5275195 -0.21399416 0.30418152 0.4355768 -0.22529513 -0.6093594 -0.34382918 -0.12173764
0.089236595 0.066586114 0.17439695 0.19743843 0.11737462 0.2402435 0.09764364 0.80112994
0.02967922 0.029409291 -0.087385625 0.027711283 -0.09598418 -0.42324945 0.26299006 0.026797652
-0.02313849 0.107430734 0.18696497 0.116567835 -0.27591226 0.1658777 -0.12049013 -0.11466665
-0.44613665 0.052278936 0.51542693 -0.23388328 -0.14827247 -0.01565445 0.09412633 -0.10598664
0.035356514 0.102663964 0.019691681 0.005135685 -0.33472022 -0.21961212 0.4324113 -0.010172515
-0.5569689 0.340926 -0.15786493 -0.20172009 -0.09842 0.20896757 -0.17914073 -0.3375702
0.27515966 0.23094219 0.58669907 -0.13002011 -0.49381226 0.58110964 -0.016782517 0.30192667

fc3.weight f4 [1, 64]
00000000: c416 14be fbaf 1b3f 8645 6ebe 51c0 433e
00000010: 3300 10bf c221 4f3e 3b4d 85bd 4a8d adbc
00000020: 3384 213e d8ff 5abe 920e d03e 1b3f 063e
00000030: d8ab 5f3d 50fd e93e 3163 aa3e 4daa b4bd
00000040: ca66 81bd 6f65 68be efb8 813d 65d6 483d
00000050: 73ea bc3e 919d 8d3d b872 1a3d 304c 0d3f
00000060: c639 60bd 3d8e b83d d27e 8ebe e71e 253d
00000070: a349 bcbd 0e6a d5be a810 e5bd 526e 903e
00000080: 7efb 083e eccc dcbc 34c6 27be 4e41 a63c
00000090: 7e21 83bc 16df 453f 28dc 133e f49b 113d
000000a0: 69ff 3b3e 3d19 763c 9524 8bbe fbc4 92bb
000000b0: 0e85 04bc 1235 46be fa54 793e 218e 473e
000000c0: dce1 d93d 28d8 dabe 04a7 b1be 390f ac3d
000000d0: a0a1 5b3e 2fdf e63d 5b46 5a3e 1cba b43e
000000e0: ebc3 9ebe e0c5 67be 9583 7bbe 9c9f 97bd
000000f0: 1067 563b 55e1 b9bc c4b5 88bc 432c bb3e
-0.1446181 0.608154 -0.23268709 0.19116332 -0.56250304 0.20227721 -0.06508871 -0.021185536
0.15773086 -0.21386659 0.40636116 0.1311001 0.054607242 0.45701075 0.33278802 -0.08821545
-0.063184336 -0.22694944 0.063341014 0.049032588 0.3689762 0.06914819 0.03770706 0.5519438
-0.054742597 0.09011505 -0.2783113 0.040312674 -0.091937326 -0.41682476 -0.111848176 0.28209168
0.13377187 -0.026953183 -0.16384202 0.020294812 -0.016007181 0.7729353 0.14439452 0.03554912
0.1835915 0.015020666 -0.27176347 -0.0044790483 -0.008088363 -0.19356182 0.24348822 0.19487812
0.106387824 -0.4274304 -0.34697735 0.08401341 0.21448374 0.11273038 0.21315901 0.3529824
-0.3100885 -0.22634077 -0.24561913 -0.0740349 0.0032715239 -0.022690454 -0.016688235 0.36557207
